checkpoints/dqn_humanoid.pth (torch, 634001 bytes, 6 tensors)

net.0.weight f4 [256, 348]
0	0xbf1c3ec0	-0.6103325
1	0xbed25a36	-0.4108445
2	0xbe882358	-0.26589465
3	0x3f455d11	0.77095133
4	0xbe8ff689	-0.2811778
5	0xbec973b0	-0.39346075
6	0xbee3686f	-0.44415614
7	0xbe9b76b7	-0.3036401
8	0x3e8b00a9	0.2714894
9	0xbf4e5ab9	-0.8060718
10	0xbd83372f	-0.0640701
11	0x3ec58ad1	0.3858247
12	0xbeb0a4e6	-0.34500808
13	0xbe6e3fe3	-0.23266558
14	0xbe2852c8	-0.16437829
15	0x3d224d24	0.03962435
16	0xbfb9113b	-1.4458383
17	0x3dbe4e2f	0.09292256
18	0xbeb8a410	-0.3606267
19	0x3d6fba9c	0.058527574
20	0xbea11523	-0.3146144
21	0xbed6ecf3	-0.41977653
22	0xbf249813	-0.64294547
23	0x3f9fb518	1.247714
24	0xbf2f5a7d	-0.6849745
25	0xbf38d878	-0.72205305
26	0xbe048223	-0.12940268
27	0x3e34b6eb	0.17647903
28	0xbedba254	-0.42897284
29	0x3eceb8d0	0.40375376
30	0x3f80681e	1.0031774
31	0x3e553171	0.20819642
32	0xbe80caa4	-0.25154603
33	0xbe0de76b	-0.1385781
34	0x3e9f2780	0.31084824
35	0xbec55f69	-0.38549355
36	0x3e873539	0.26407793
37	0xbf137b6a	-0.5761019
38	0xbe66abb2	-0.22526434
39	0xbf0062a0	-0.5015049
40	0xbc5bbfc6	-0.013412422
41	0x3ebcacda	0.36850625
42	0xbece52c4	-0.4029752
43	0xbdb2cb2a	-0.08730157
44	0x3dcbbbd5	0.099479355
45	0xbf367437	-0.7127108
46	0xbf2aa3d6	-0.66656244
47	0x3fd08aa4	1.629231
48	0xbec87488	-0.39151406
49	0xbe2b221b	-0.16712229
50	0xbf298463	-0.6621763
51	0x3ddb2788	0.10700899
52	0x3f0840a8	0.5322366
53	0xbf0d252d	-0.5513485
54	0xbe297a1e	-0.1655049
55	0xbea70656	-0.3262202
56	0xbe180a0f	-0.14847587
57	0x3f85994c	1.0437407
58	0x3e184887	0.14871417
59	0x3ec525a8	0.38505292
60	0xbf70c69d	-0.9405306
61	0xbed61d83	-0.4181939
62	0x3f8e0386	1.1094825
63	0xbeacae34	-0.33726656
64	0xbe0ac88a	-0.13553062
65	0x3f21a655	0.6314443
66	0x3f64e72c	0.8941524
67	0x3f124a53	0.5714466
68	0xbead7b6d	-0.3388323
69	0x3f583066	0.8444885
70	0xbe337ce3	-0.17528109
71	0xbe42684d	-0.189851
72	0x3f0d004d	0.55078584
73	0x3e899bbf	0.26876637
74	0xbe5d54dc	-0.21614403
75	0xbebeebb9	-0.37289217
76	0xbea32c86	-0.31869906
77	0x3f0f39f8	0.5594783
78	0xbf239d89	-0.63912255
79	0xbe9994c1	-0.29996303
80	0x3ddbab93	0.107260846
81	0xbf492a42	-0.78580105
82	0xbd77da72	-0.06051106
83	0x3f2a04a9	0.6641336
84	0xbe60eca9	-0.21965279
85	0xbf06b21a	-0.5261551
86	0xbf2d812a	-0.67775214
87	0x3f36f324	0.71464753
88	0xbee17ad6	-0.4403903
89	0xbde9f65c	-0.114239424
90	0xbe958fcf	-0.2921128
91	0xbeb074da	-0.3446415
92	0xbf1e2041	-0.61767966
93	0x3ee48d90	0.44639254
94	0xbe4ad567	-0.19807969
95	0xbf17460b	-0.5909125
96	0xbf1edab5	-0.6205247
97	0x3f8cccf2	1.1000044
98	0xbf137a0a	-0.5760809
99	0x3edba7c9	0.42901447
100	0xbe0b8b8d	-0.13627453
101	0x3e6c5256	0.23078284
102	0xbe97052c	-0.29496133
103	0x3f090494	0.5352261
104	0xbe3a8bef	-0.18217443
105	0xbec6e9eb	-0.3885034
106	0xbe287f9d	-0.1645493
107	0x3f0bedb2	0.5465957
108	0x3ea739e0	0.32661343
109	0x3ec1e2e0	0.37868404
110	0xbf492548	-0.7857251
111	0xbd9e9e5c	-0.077450484
112	0xbe9e6420	-0.30935764
113	0x3f0546e3	0.5206129
114	0xbe29da89	-0.16587271
115	0xbf4655bb	-0.77474564
116	0xbf1b62fb	-0.6069791
117	0x3f880a74	1.062819
118	0xbef10f7f	-0.47082135
119	0x3f12c560	0.5733242
120	0xbf461e66	-0.77390134
121	0x3f2ec16b	0.6826388
122	0xbef18a92	-0.47176033
123	0x3f11889d	0.5684908
124	0xbe5e9851	-0.21737792
125	0xbf56d2d8	-0.8391547
126	0xbf273f21	-0.653307
127	0x3fb32283	1.3994907
128	0xbf14d163	-0.58132
129	0x3f8de8de	1.108669
130	0xbf1dde3f	-0.61667246
131	0x3f84084b	1.0315031
132	0xbe8c565b	-0.27409634
133	0x3f0b6cf5	0.5446313
134	0xbe214bd2	-0.1575158
135	0xbf2172be	-0.6306571
136	0xbee2eb88	-0.4432032
137	0x3dba333a	0.09091802
138	0xbedf7614	-0.43644774
139	0x3e79d8b8	0.24399078
140	0xbf739320	-0.9514637
141	0xbe5bb550	-0.21455884
142	0x3eef6b0a	0.46761352
143	0xbf128ead	-0.57248956
144	0xbe2773f4	-0.16352826
145	0xbe43fb66	-0.1913887
146	0xbebcfb6e	-0.36910576
147	0x3d8ad315	0.06778542
148	0xbdda9830	-0.10673559
149	0x3f59b825	0.8504661
150	0xbf53291d	-0.8248461
151	0xbee98e43	-0.4561635
152	0x3e0084e5	0.12550695
153	0xbf478c64	-0.77948594
154	0xbe2ccd59	-0.16875209
155	0xbf116973	-0.5680153
156	0xbf04adfd	-0.51827985
157	0x3eb00364	0.34377587
158	0x3f055b99	0.5209289
159	0xbe8c9925	-0.2746059
160	0x3f2f5cd8	0.68501043
161	0x3d2347b3	0.0398633
162	0xbec9420c	-0.39308202
163	0xbf1798c7	-0.59217495
164	0xbe6bd85f	-0.23031758
165	0xbee29a4d	-0.44258347
166	0xbef58d5d	-0.47959414
167	0x3d6e90f0	0.058243692
168	0x3f0b474c	0.54405665
169	0x3f6bbedd	0.9208811
170	0x3f195179	0.5988994
171	0xbf05f12f	-0.5232114
172	0xbe602cb4	-0.21892053
173	0xbf5f630d	-0.87260514
174	0xbe436645	-0.19081981
175	0x3ebb20f1	0.3654857
176	0xbe309847	-0.17245589
177	0xbefee176	-0.49781388
178	0x3d6d1aa3	0.05788673
179	0x3f87b3d3	1.0601753
180	0xbe94daf2	-0.29073292
181	0xbf51748a	-0.8181845
182	0x3e0dbea5	0.13842256
183	0x3d226f35	0.039656837
184	0xbec17441	-0.37784007
185	0x3e8a7949	0.27045658
186	0xbeb9d375	-0.3629414
187	0x3c40e627	0.011773623
188	0x3edaf53d	0.42765227
189	0xbcc5659e	-0.024096306
190	0xbf0b008f	-0.5429773
191	0x3f47aadc	0.77995086
192	0xbeb85d24	-0.3600856
193	0xbe68efed	-0.22747774
194	0xbdaa0069	-0.083008595
195	0x3ece36ee	0.40276283
196	0xbedcbeb1	-0.43114236
197	0x3f126fe1	0.57201964
198	0x3b940c18	0.0045180432
199	0x3f7bf0fc	0.9841459
200	0xbece48b8	-0.40289855
201	0x3f0b1b83	0.54338855
202	0xbf1f6d84	-0.6227648
203	0xbf1cd8f0	-0.6126852
204	0x3cf5c91c	0.030003123
205	0x3f685fd0	0.907712
206	0xbef2491b	-0.473214
207	0x3f1ca9d1	0.6119662
208	0xbf1d9aaf	-0.61564153
209	0xbf376fcd	-0.7165497
210	0xbbd87cdb	-0.006606681
211	0xbf36fafe	-0.71476734
212	0xbdb1e85a	-0.08686896
213	0x3ca84c15	0.020544091
214	0xbf233ea7	-0.63767475
215	0x3e49a3a5	0.19691332
216	0x3e71251b	0.23549311
217	0x3eac7c52	0.336886
218	0x3ca399a3	0.01997072
219	0xbeddea62	-0.43342882
220	0xbea8c66b	-0.3296388
221	0xbe97b1c3	-0.2962781
222	0x3eb4a4d7	0.35282013
223	0x3e943062	0.28943163
224	0x3d984107	0.07434278
225	0xbee0b951	-0.43891385
226	0xbea60171	-0.32422975
227	0xbec32afe	-0.38118738
228	0x3ebb5900	0.3659134
229	0x3e83f917	0.25775978
230	0xbe999eba	-0.3000391
231	0x3cae420f	0.021271734
232	0x3e26b24f	0.16278957
233	0x3f84dc28	1.0379686
234	0xbea32479	-0.31863764
235	0xbefceb16	-0.49398106
236	0xbee109c5	-0.43952766
237	0x3e5f3ac8	0.21799767
238	0x3e4c8640	0.19973087
239	0x3f1ca935	0.6119569
240	0xbef75ac4	-0.48311436
241	0xbeb0d0a6	-0.34534186
242	0xbf23e016	-0.64013803
243	0x3f3ae486	0.7300495
244	0x3e478026	0.19482478
245	0x3f131f20	0.5746937
246	0xbee482f8	-0.4463117
247	0xbe154192	-0.14575794
248	0xbe36b074	-0.17840749
249	0xbe0b90e2	-0.13629487
250	0xbecd471f	-0.40093324
251	0x3f1e95bf	0.61947244
252	0xbe7b34a8	-0.24531806
253	0xbc322978	-0.010874145
254	0x3dd54a11	0.10414518
255	0x3e48f86e	0.19626018

net.0.bias f4 [256]
0	0xbe417b5f	-0.18894719
1	0x3e5f31b6	0.21796307
2	0xbdc64ccf	-0.09682619
3	0x3e038d28	0.12846816
4	0xbd5d3e2a	-0.054014362
5	0xbe2f1925	-0.17099436
6	0xbe8136e7	-0.252372
7	0x3bdc6667	0.0067260745
8	0xbda7e894	-0.08198658
9	0xbb2291f0	-0.0024806224
10	0x3c139acd	0.009009075
11	0xbd7a5a9d	-0.06112157
12	0xbd8c1c22	-0.068413034
13	0xbd2d1c2a	-0.042263187
14	0x3c14766c	0.009061437
15	0x3c0ec006	0.008712774
16	0x3e56c65f	0.2097411
17	0xbeb92399	-0.3615997
18	0xbd8f32ba	-0.06992097
19	0xbd9607c1	-0.07325698
20	0xbe1372ea	-0.14399305
21	0xbe8dee9c	-0.27721107
22	0x3ef7edfb	0.48423752
23	0xbe250b0b	-0.16117494
24	0x3cf7157c	0.030161612
25	0x3ef8b31d	0.48574153
26	0xbd94684d	-0.07246456
27	0x3e1e8fa8	0.15484488
28	0xbd5e0c2d	-0.05421083
29	0xbe0a538a	-0.1350843
30	0xbe247f57	-0.16064201
31	0xbe07d2b4	-0.1326397
32	0xbea133c8	-0.31484818
33	0xbea69b26	-0.32540244
34	0xbf845745	-1.0339133
35	0xbd04b8e0	-0.032402873
36	0xbda2efb7	-0.07955878
37	0x3e30e750	0.17275739
38	0x3e5578a9	0.2084681
39	0x3d5fbdac	0.054624245
40	0xbe4449be	-0.19168755
41	0x3e08b412	0.13349941
42	0xbe18e184	-0.14929777
43	0xbe430c0c	-0.19047564
44	0xbdcbcf0f	-0.09951603
45	0x3de0f67b	0.109845124
46	0x3d0108ca	0.031502523
47	0x3db440d0	0.088014245
48	0xbe96ce55	-0.29454294
49	0x3e0633c3	0.13105683
50	0xbd6cc03c	-0.057800516
51	0xbd97fdc6	-0.0742145
52	0xbda9dad5	-0.08293692
53	0xbdc2df35	-0.095152296
54	0xbe5970ef	-0.21234487
55	0xbe49ddcd	-0.19713517
56	0x3eaed266	0.34144896
57	0xbdbede24	-0.09319714
58	0x3e0eada7	0.1393343
59	0xbe35f39c	-0.17768711
60	0x3d4581b1	0.048219386
61	0x3dc7e822	0.09761073
62	0x3d1e04f8	0.038578957
63	0xbe9b81a8	-0.30372357
64	0x3d5146a5	0.051092763
65	0xbdb59a06	-0.08867268
66	0xbde2200c	-0.11041269
67	0x3cf84269	0.030305104
68	0xbdb5964c	-0.088665575
69	0xbc79f324	-0.015255723
70	0xbe8fa7f7	-0.28057835
71	0xbdbca1e0	-0.09210563
72	0x3c76ac80	0.015055776
73	0xbd9652b4	-0.07339993
74	0x3d99f99d	0.07518313
75	0x3e11d328	0.14240706
76	0x3dfcc97b	0.12343117
77	0xbe2dafc7	-0.16961585
78	0xbef5cc89	-0.4800761
79	0xbda4f0cc	-0.08053741
80	0x3ed89cc6	0.4230711
81	0xbe2ae7fb	-0.16690056
82	0x3d4b4565	0.049626727
83	0x3c29efa3	0.010372075
84	0x3e29d51d	0.16585203
85	0xbf311faf	-0.6918897
86	0x3eaf3c1f	0.34225556
87	0xbdd88403	-0.10572054
88	0x3f09de4c	0.53854823
89	0xbef3a8ce	-0.47589725
90	0xbe6e9a43	-0.23301034
91	0x3e55e025	0.20886286
92	0xbb4ca862	-0.0031228294
93	0x3f15e837	0.58557457
94	0x3db54233	0.08850517
95	0xbd28cca5	-0.04121079
96	0xbcea1267	-0.028573228
97	0xbe5937ac	-0.21212643
98	0xbdec151f	-0.11527466
99	0xbe85a33c	-0.261011
100	0xbe16f308	-0.14741147
101	0x3e497142	0.1967211
102	0x3df4b13b	0.119478665
103	0xbe91d8e7	-0.28485796
104	0xbe992dd5	-0.2991778
105	0xbbff1469	-0.0077844155
106	0xbdc40b0b	-0.09572419
107	0x3ea8c0c5	0.3295957
108	0xbe95966b	-0.29216322
109	0x3d54e140	0.051972628
110	0xbe0a83a8	-0.13526785
111	0x3eb54d1b	0.3541039
112	0xbe99f469	-0.30069283
113	0x3bcf72b4	0.0063308123
114	0xbe5da840	-0.21646214
115	0xbb0ffbfb	-0.002197026
116	0x3cfab6b7	0.030604703
117	0xbe696c62	-0.22795251
118	0x3cd9818a	0.026551027
119	0xbdc38823	-0.095474504
120	0xbe765c46	-0.24058637
121	0xbef456e9	-0.47722557
122	0xbd880f5d	-0.06643555
123	0xbd56c6cb	-0.052435677
124	0xbd090f33	-0.03346176
125	0x3e8bf135	0.27332464
126	0xbcb5dfe5	-0.022201488
127	0xbe0dd6b8	-0.1385144
128	0x3dac0ba1	0.084006555
129	0x3c78be96	0.015182158
130	0x3d4b12a6	0.04957833
131	0xbd883fb0	-0.066527724
132	0x3d280050	0.041015923
133	0xbd308f21	-0.04310525
134	0x3d738fe9	0.059463415
135	0x3dd68a10	0.10475552
136	0xbd726dec	-0.05918686
137	0x3d4844f7	0.048893895
138	0x3d1f11ad	0.038835216
139	0x3cc36d5f	0.023855863
140	0x3dccb80c	0.09996042
141	0x3e0493e2	0.12947038
142	0x3f0061dd	0.5014933
143	0x3e1ead1f	0.15495728
144	0x3d7d2017	0.06179818
145	0x3ef733f5	0.48281828
146	0xbd2bb07a	-0.041916348
147	0x3eb91817	0.36151192
148	0x3f0698d3	0.5257694
149	0xbd1ce81c	-0.038307294
150	0x3e5115d1	0.20418479
151	0x3da791a9	0.08182079
152	0xbdedd761	-0.11613346
153	0xbdeb81f9	-0.114994
154	0x3e9f7bd9	0.31149176
155	0xbf5e3a31	-0.86807543
156	0x3dbc3b69	0.09191019
157	0xbe1aa1de	-0.1510081
158	0xbe5f58b7	-0.21811186
159	0xbd217616	-0.039419256
160	0x3d2cc996	0.042184435
161	0x3e4cabc5	0.199874
162	0x3dc6acef	0.09700953
163	0xbcd41a21	-0.025891365
164	0x3e8def5a	0.27721673
165	0x3e6576b3	0.22408561
166	0xbd832f7b	-0.064055406
167	0xbea22317	-0.31667396
168	0x3eb03264	0.34413445
169	0x3de8f995	0.11375729
170	0xbe8122a3	-0.25221738
171	0x3e5557f2	0.2083433
172	0x3d0aa620	0.033849835
173	0xbce54170	-0.027985305
174	0x3ef3ccaf	0.476171
175	0xbe09b2a8	-0.13447058
176	0xbd08ea7a	-0.03342674
177	0xbe206778	-0.1566447
178	0xbf12a633	-0.5728485
179	0xbdc621d2	-0.096744195
180	0xbde1bc44	-0.11022237
181	0x3e059df4	0.13048536
182	0xbe15a67e	-0.14614293
183	0x3e9e9421	0.30972388
184	0xbe68e36a	-0.22743002
185	0xbe22ab3b	-0.15885632
186	0xbe199f44	-0.15002161
187	0x3e341a3b	0.17588131
188	0xbbd313b2	-0.006441557
189	0xbc50cab2	-0.012743639
190	0x3de9ab14	0.11409584
191	0xbe7f12a6	-0.24909458
192	0xbde8842c	-0.11353335
193	0xbe446e9d	-0.1918282
194	0xbe6b5289	-0.22980703
195	0xbe20a273	-0.1568697
196	0xbea01639	-0.31266955
197	0xbd1721c6	-0.036897443
198	0x3d173dae	0.036924057
199	0xbe921736	-0.28533334
200	0xbe008d3f	-0.12553881
201	0xbde29969	-0.11064417
202	0x3dc6bdad	0.097041465
203	0x3ec6f59b	0.38859257
204	0xbe1045e9	-0.14089169
205	0xbe898f55	-0.26867166
206	0xbe4c47fa	-0.19949332
207	0xbe8ab12a	-0.2708829
208	0xbea62e81	-0.32457355
209	0x3d8197d1	0.06327785
210	0x3da4f1e3	0.08053949
211	0x3e8041f1	0.2505031
212	0xbd1af57c	-0.03783177
213	0xbf65e820	-0.8980732
214	0xbdf102dd	-0.11768124
215	0x3d4ee8a4	0.050514832
216	0x3e0e6b9e	0.1390824
217	0xbe5839f9	-0.21115865
218	0xbefaf686	-0.49016207
219	0xbf0b4b37	-0.54411644
220	0x3f010997	0.5040526
221	0xbed8e8f9	-0.42365244
222	0x3e778881	0.24173166
223	0xbe9cc98f	-0.30622527
224	0xbdc74339	-0.097296186
225	0x3f191e60	0.59811974
226	0x3e2c30d2	0.16815498
227	0xbe16da21	-0.14731647
228	0x3d1ed54b	0.03877763
229	0xbe1e4708	-0.15456784
230	0xbd42fc85	-0.047604103
231	0xbe6930e4	-0.22772557
232	0xbe38d566	-0.18050155
233	0xbc4587d6	-0.012056312
234	0x3dfc9b41	0.123343
235	0xbddda428	-0.10822326
236	0x3e193387	0.14961062
237	0x3e00445f	0.12526082
238	0x3e892c1e	0.2679147
239	0x3c0d9b36	0.008642962
240	0x3d38b771	0.04509682
241	0x3d9a23db	0.0752637
242	0x3ede480d	0.43414345
243	0x3eec4038	0.46142745
244	0x35a11e4d	1.2004253e-06
245	0xbed4f6f3	-0.41594657
246	0xbe7915f8	-0.24324787
247	0xbcf74172	-0.030182574
248	0xbdce6b36	-0.100790426
249	0xbe3a55ba	-0.18196765
250	0xbd70a5a7	-0.05875173
251	0xbdf83df7	-0.12121194
252	0xbdecfc77	-0.11571591
253	0x3e2e724e	0.17035791
254	0x3c141181	0.009037376
255	0xbd569d06	-0.052395843

net.2.weight f4 [256, 256]
0	0xbc931b08	-0.017957225
1	0xbc55b853	-0.013044435
2	0xbcba6863	-0.022754854
3	0xbd219514	-0.039448813
4	0xbd8e8513	-0.06958976
5	0x3d0a4849	0.033760343
6	0xbd89dc70	-0.06731498
7	0xbd2988bf	-0.041390177
8	0xbdb7f98e	-0.08983146
9	0xbc670443	-0.014100137
10	0x3bbf3c87	0.005836073
11	0x3d228576	0.03967806
12	0xbca8dcd3	-0.02061311
13	0x3c88557a	0.01664232
14	0x3cae396d	0.021267617
15	0x3ceb1cb6	0.028700214
16	0x3d4d230c	0.05008225
17	0xbc456342	-0.012047591
18	0xba004824	-0.0004893562
19	0x3afa9fa1	0.001912106
20	0x3d2ba578	0.04190585
21	0x3c877f45	0.016540179
22	0xbbc7246d	-0.0060773403
23	0x3bc50204	0.006012203
24	0xbc3f0de5	-0.011661028
25	0xbd93a3e7	-0.07208996
26	0xbac03c09	-0.0014666329
27	0x3d0fb891	0.035088126
28	0xbd162bc4	-0.036662832
29	0x3d0b8d8f	0.034070548
30	0xbd7983e6	-0.060916804
31	0x3ce154dd	0.027506286
32	0xbd848e6f	-0.064724796
33	0xbb330263	-0.0027314655
34	0x3c14ee1a	0.009089971
35	0x3c99424f	0.018708376
36	0x3c468f3b	0.01211911
37	0xbd519c24	-0.051174298
38	0xbd8fcb5f	-0.07021212
39	0xbcec339b	-0.028833201
40	0x3b9fc919	0.0048762676
41	0xbd21319e	-0.03935396
42	0xbcd86516	-0.026415389
43	0xbd87c5f8	-0.066295564
44	0xbd8754b4	-0.06607953
45	0xbd17cff5	-0.037063558
46	0xbd85f696	-0.06541173
47	0x3cae9331	0.02131042
48	0xbd8b1b06	-0.06792264
49	0xbc84fe02	-0.016234402
50	0xbcea9bf7	-0.028638823
51	0xbd2b6513	-0.04184444
52	0xbd5a3973	-0.053277444
53	0xbd8323d0	-0.06403315
54	0x3d1b88ef	0.037972387
55	0x3aef291c	0.0018246504
56	0xbd43670e	-0.047705702
57	0x3cfd6db0	0.030936092
58	0xbc8685ac	-0.016421162
59	0xbd4f2eec	-0.050581858
60	0xbd66a3f6	-0.05630871
61	0xbbb24e6c	-0.0054414775
62	0x3cd0780c	0.025447868
63	0xbca8947d	-0.020578617
64	0x3d391dc1	0.04519439
65	0xbd08f39a	-0.03343544
66	0xbbb85d44	-0.0056263525
67	0xbd629630	-0.05531901
68	0xbcc1fe09	-0.023680704
69	0x3bb81745	0.0056180083
70	0xbc8dd2c8	-0.017312422
71	0xbd8a19d2	-0.06743206
72	0xbdb2fa05	-0.08739094
73	0xbd85218b	-0.065005384
74	0x3c57a1ab	0.013161103
75	0x3d28d2fb	0.04121683
76	0x3baf74e7	0.005354512
77	0x3be090de	0.006853207
78	0xbd67a47f	-0.05655336
79	0xbd26153d	-0.0405476
80	0xbdd11e03	-0.102108024
81	0x3cd2b362	0.025720302
82	0x3c86f5ce	0.01647463
83	0xbcb598cc	-0.022167586
84	0xbb4dfe3f	-0.003143206
85	0x3d4b00fa	0.04956148
86	0xbda6fb84	-0.081534415
87	0xbd57b820	-0.05266583
88	0xbd62ae26	-0.055341862
89	0x3cb8035e	0.022462543
90	0x3c4d9159	0.012546861
91	0xbd6253f5	-0.05525585
92	0x3d2a8704	0.041632667
93	0xbbbef641	-0.0058276956
94	0xbc32ec14	-0.010920543
95	0xbcc367a3	-0.023853129
96	0xbd010aa6	-0.031504296
97	0xbd12b71a	-0.03581915
98	0x3d618997	0.055062857
99	0x3c7488fe	0.01492524
100	0xbb83f591	-0.0040270765
101	0x3b545d73	0.0032404333
102	0xbab1f1b3	-0.001357606
103	0xbd4859f2	-0.048913904
104	0xbd116b56	-0.035502754
105	0xbc43a2b2	-0.011940645
106	0x3d185d18	0.037198156
107	0xbcb48cca	-0.02203979
108	0xbd686380	-0.056735516
109	0xbca55ff7	-0.020187361
110	0x3c50671f	0.0127198985
111	0x3d091425	0.033466477
112	0xbc96edc9	-0.018423932
113	0xbdb4edee	-0.08834444
114	0xbb4c6096	-0.00311855
115	0xbdaac069	-0.083374806
116	0xbd34203e	-0.04397606
117	0xbd5ed472	-0.054401822
118	0xbca87313	-0.020562684
119	0x3d35d9a9	0.04439703
120	0x3d23a866	0.03995552
121	0x3d10f4c1	0.035389666
122	0xbd3da69d	-0.046301473
123	0xbc4e62f4	-0.012596834
124	0xb70d9303	-8.438484e-06
125	0xbc802711	-0.015643628
126	0xbd3c5cba	-0.04598687
127	0xbc0dc0eb	-0.008651952
128	0x3b9b2ed4	0.004735807
129	0xbd3cb298	-0.046068758
130	0xbbb25cdb	-0.005443198
131	0xbd803514	-0.06260124
132	0xbd38f7f8	-0.045158356
133	0x3c53ee75	0.012935271
134	0x3d1d31c2	0.03837753
135	0x3cd0f949	0.025509493
136	0x3cca1a00	0.0246706
137	0xbcb54d95	-0.02213172
138	0xbd00fea9	-0.031492863
139	0x3cad7a18	0.021176383
140	0xbc602c5a	-0.013682449
141	0x3bc2bd17	0.0059429514
142	0x3c18d3e5	0.009327863
143	0xbd1301f4	-0.035890535
144	0xbcec5891	-0.028850826
145	0xbda550ea	-0.08072074
146	0x3c948f99	0.018134879
147	0xbd60176a	-0.05470983
148	0xbcb5749b	-0.022150328
149	0xba1afb1b	-0.00059120514
150	0xbd2e5fca	-0.04257182
151	0xbd1261d6	-0.035737835
152	0xbd48ea42	-0.04905153
153	0xbc336871	-0.010950194
154	0x3c294d0a	0.010333309
155	0xbd1aafb7	-0.03776523
156	0xbb1fab5d	-0.0024363615
157	0x3c81c076	0.015838843
158	0xbce54147	-0.027985228
159	0xbd3e560d	-0.046468783
160	0xbab70185	-0.0013962245
161	0xbd173675	-0.03691717
162	0x3d31bc26	0.043392323
163	0xbd0dc9aa	-0.03461615
164	0xbd7833a4	-0.060596123
165	0xbd71a1da	-0.058992244
166	0xbd757bce	-0.059932522
167	0xbcdf41f1	-0.027253123
168	0xbd0b94d4	-0.03407748
169	0x3d324897	0.04352626
170	0x3c022c91	0.007945196
171	0xbd274b0f	-0.040843066
172	0xbab8e334	-0.0014105798
173	0xbd78f6a2	-0.060782082
174	0x3ce39541	0.02778113
175	0x3ba35dbf	0.0049855406
176	0x3d5a3e57	0.05328211
177	0xbd70532f	-0.05867308
178	0xbd265f28	-0.04061809
179	0xbdbd77bc	-0.09251353
180	0xbd31f61d	-0.043447603
181	0x3c8952cb	0.016763112
182	0xb99d67ec	-0.000300228
183	0xbd2a6d57	-0.04160818
184	0xbca37575	-0.019953469
185	0xba6a1d6b	-0.0008930775
186	0xbd24e9ca	-0.04026202
187	0xbd2cc46a	-0.042179503
188	0xbc28553e	-0.01027423
189	0xbd282c41	-0.04105783
190	0xbc6db141	-0.014507593
191	0xbd02c750	-0.03192836
192	0xbc8de571	-0.01732132
193	0xbb7abc2d	-0.0038259134
194	0xbbd9f432	-0.006651425
195	0xbd3f6c3f	-0.04673409
196	0xbcec213f	-0.028824447
197	0xbd43a7b2	-0.04776735
198	0x3d58539a	0.052814104
199	0xbcdf172e	-0.027232733
200	0xbc0fe0fe	-0.00878167
201	0x3ce34037	0.027740581
202	0x3cecf182	0.028923754
203	0xbd8fbcce	-0.070184335
204	0xbdab26a8	-0.083569825
205	0xbd0a28d9	-0.03373036
206	0xbc5670bc	-0.013088401
207	0x3cbc18e0	0.02296108
208	0xbd2cc327	-0.0421783
209	0xbd3e3261	-0.046434764
210	0x3cb20426	0.021730494
211	0x3c42f079	0.011898153
212	0xbd80b049	-0.06283624
213	0xbc142155	-0.00904115
214	0xbd8622a6	-0.065495774
215	0xbc44358b	-0.011975656
216	0xbd3805cc	-0.044927403
217	0xbd035405	-0.03206255
218	0xbd44bbfb	-0.048030835
219	0xbc980d3d	-0.018561
220	0xbd499d68	-0.04922238
221	0x3cb95e60	0.02262801
222	0xbd8be906	-0.06831555
223	0xbcf39d20	-0.029738009
224	0xbc2a032b	-0.010376732
225	0xbcdf1195	-0.027230063
226	0xbd685ab7	-0.056727137
227	0xbd09626a	-0.03354112
228	0xbcbc7f77	-0.023009999
229	0xbae6a446	-0.0017596565
230	0xbd08b95c	-0.033379897
231	0xbb458c5d	-0.0030143477
232	0xbd33b90e	-0.043877654
233	0x3d4394f7	0.047749486
234	0x3c4dbb11	0.012556807
235	0x3d0ba1a2	0.034089692
236	0x3b191e57	0.0023364031
237	0x3c0ab9dc	0.008467164
238	0x3c0b524e	0.00850351
239	0xbd4df36b	-0.05028097
240	0xbce3536d	-0.027749741
241	0xbd890a68	-0.06691438
242	0xbd74085a	-0.059578277
243	0xbcc41b5f	-0.023938833
244	0x3d39a64f	0.04532462
245	0x3aa17333	0.0012317657
246	0x3c5fe209	0.013664731
247	0x3cc6c730	0.024264902
248	0xbc478c1a	-0.012179399
249	0x3d1f8c54	0.038952187
250	0x3b671f97	0.0035266632
251	0xbcf99a8b	-0.0304692
252	0x3c2553c3	0.010090771
253	0x3b4054b6	0.0029347367
254	0xbcf82d8a	-0.030295152
255	0x3c0a6ee9	0.008449295

net.2.bias f4 [256]
0	0xbd3e1d44	-0.04641463
1	0xbd7fc257	-0.062441196
2	0x3f46691e	0.77504146
3	0x3ebcde57	0.36888382
4	0x3f42c90d	0.7608803
5	0xbc97a18d	-0.01850965
6	0x3f03e0a2	0.5151464
7	0x3ca67597	0.020319743
8	0xbd6ffefb	-0.058592778
9	0x3e100e22	0.14067891
10	0x3f31071d	0.6915148
11	0xbdc28b57	-0.09499233
12	0xbd090525	-0.03345217
13	0xbd9cf72f	-0.07664334
14	0x3cc52ee7	0.024070216
15	0xbca0ea17	-0.019642873
16	0x3e4c7699	0.19967116
17	0x3dc1ba8f	0.09459411
18	0x3e79d195	0.24396355
19	0x3e11d291	0.14240481
20	0x3ddbb26f	0.10727393
21	0x3e941244	0.28920186
22	0xbd5464e9	-0.051854048
23	0xbd69eda2	-0.05711139
24	0x3dee58b6	0.11638014
25	0xbba0dfdd	-0.004909499
26	0x3dabf9d1	0.08397258
27	0x3e9bbdcc	0.3041824
28	0x3e203a2f	0.15647195
29	0xbbb75dad	-0.005595884
30	0xbe1038f2	-0.14084223
31	0x3e9c41e6	0.30519027
32	0xbac5c15e	-0.0015087535
33	0xbbe4eaa2	-0.006985978
34	0x3d41dc4b	0.04732923
35	0x3d273d4c	0.04082994
36	0x3e2ec6f5	0.17068084
37	0x3f3a46bc	0.7276418
38	0x3f0079cb	0.5018584
39	0x3d8d32ee	0.0689448
40	0x3e8e4e3c	0.27794063
41	0xbd9faf1b	-0.077970706
42	0xbd9a6a81	-0.07539845
43	0x3aee1491	0.0018164088
44	0xbda3062e	-0.07960163
45	0xbc9e4b48	-0.019323006
46	0x3e670a11	0.22562434
47	0x3cefef78	0.029288992
48	0x3e9c1ac9	0.30489185
49	0x3e4370b8	0.19085968
50	0xbdcf65e7	-0.10126858
51	0x3e69c965	0.22830732
52	0x3d7e988b	0.062157195
53	0xbcd66386	-0.026170503
54	0x3f00b576	0.5027689
55	0x3e6a3831	0.22872998
56	0x3e966336	0.29372567
57	0x3ea92b66	0.33040923
58	0x3dac1270	0.08401954
59	0x3ce232e9	0.027612166
60	0x3ef7bf0e	0.4838795
61	0x3d2f5231	0.042802993
62	0x3c19f6b8	0.009397201
63	0x3ee895d8	0.45426822
64	0xbd84bf1f	-0.06481766
65	0x3e8cc6cd	0.27495423
66	0x3e009f93	0.12560873
67	0xbd1ba260	-0.03799665
68	0x3e964f3d	0.2935733
69	0x3ddb6fdf	0.10714697
70	0x3e69d17f	0.22833823
71	0x3d3dfdd0	0.046384633
72	0x3f215dc0	0.63033676
73	0x3de7deab	0.113217674
74	0xbd214787	-0.039374854
75	0x3ee577f7	0.44818088
76	0x3e5f6f71	0.21819855
77	0xbd4fd3fc	-0.050739273
78	0xbbceddcb	-0.006313061
79	0x3db468e7	0.08809071
80	0x3e32483f	0.17410372
81	0x3e65c5e5	0.22438772
82	0x3cc2fcb9	0.023802148
83	0x3f2a8217	0.6660475
84	0x3f2c6007	0.67334026
85	0x3cc69fc6	0.024246108
86	0x3ecee85b	0.40411648
87	0xbc2262e5	-0.009911274
88	0x3e80f551	0.25187162
89	0x3f4ac930	0.7921324
90	0x3b06cf7b	0.0020570445
91	0x3ded68f2	0.11592282
92	0xbc9d3e0b	-0.019194623
93	0x3d9b2769	0.07575876
94	0x3e896db8	0.2684152
95	0x3f13f659	0.5779777
96	0xbd227a20	-0.03966725
97	0xbd3a09b4	-0.04541941
98	0x3e4fa7b4	0.20278817
99	0xbd463f8d	-0.04840045
100	0x3defd941	0.1171136
101	0x3d0aad97	0.033856954
102	0x3c8e093e	0.017338391
103	0x3f1917cc	0.59801936
104	0x3e3412cc	0.17585295
105	0x3da4bb4a	0.08043535
106	0x3f642d75	0.8913186
107	0x3f029a39	0.51016575
108	0x3e7a812b	0.24463336
109	0x3c42c9ab	0.011888902
110	0xbd850257	-0.06494587
111	0x3e468a26	0.19388637
112	0x3e7cffb3	0.24706917
113	0xbbe91b5b	-0.0071138567
114	0xbd7e28d5	-0.06205066
115	0x3d586ca1	0.05283797
116	0x3e803aef	0.25044963
117	0x3d2034a6	0.03911271
118	0x3f0de734	0.5543091
119	0x3f53a177	0.8266825
120	0x3e8581b8	0.2607553
121	0xbc298681	-0.01034701
122	0x3ef73b65	0.48287502
123	0x3d5fe932	0.05466575
124	0xbc92cfd2	-0.017921362
125	0xbc2532a3	-0.0100828735
126	0xbd76da57	-0.06026682
127	0x3e91e027	0.28491327
128	0x3e9191b7	0.28431484
129	0x3ea41efb	0.32054886
130	0xbcaef567	-0.021357251
131	0x3ec5fdcf	0.38670203
132	0x3dbaa734	0.09113923
133	0x3f0cc9cb	0.5499541
134	0x3ba5ad27	0.0050560418
135	0x3bb71e3e	0.005588322
136	0x3f0c3b6d	0.54778177
137	0x3e372742	0.1788607
138	0xbcc4410c	-0.023956798
139	0x3e2eebbc	0.17082113
140	0x3edd20d4	0.43189108
141	0xbc50bee4	-0.012740824
142	0xbdc2b880	-0.09507847
143	0x3eae7ce0	0.34079647
144	0x3be0d956	0.006861846
145	0x3cb1eac8	0.021718398
146	0x3e1dd22a	0.15412202
147	0x3eacf943	0.33783922
148	0xbcf05970	-0.029339522
149	0xbd9ae290	-0.075627446
150	0x3eabccfc	0.33554828
151	0x3edaf625	0.42765918
152	0xbd83113f	-0.06399774
153	0x3ea93d2e	0.3305449
154	0xbd67c8a4	-0.05658783
155	0xbdeed25f	-0.11661219
156	0x3f0486e7	0.51768345
157	0x3f0313ec	0.51202273
158	0x3ee65650	0.44987726
159	0x3f1b312e	0.6062192
160	0x3f17f5d5	0.59359485
161	0x3f275e3e	0.6537818
162	0xbd8520c9	-0.06500394
163	0x3dc333e5	0.095313825
164	0x3e8ad9b8	0.2711923
165	0x3be204b2	0.0068975324
166	0x3c992e1f	0.01869875
167	0x3d62fbef	0.055416044
168	0x3ea667b8	0.32501006
169	0xbd9157a5	-0.07096795
170	0xbd195f84	-0.037444606
171	0x3f1b5b18	0.60685873
172	0xbd2dfd48	-0.042477876
173	0xbd822e34	-0.06356469
174	0x3baaf337	0.0052169817
175	0x3dec51bc	0.11539027
176	0x3e011e8a	0.12609306
177	0x3f051efa	0.5200039
178	0x3e786d25	0.24260385
179	0x3f2728cd	0.6529663
180	0x3f490d6d	0.7853611
181	0x3e8e2ea6	0.27769965
182	0x3c0124f0	0.007882342
183	0x3ce2aeb8	0.027671203
184	0x3f2453e4	0.64190507
185	0x3dbaa28b	0.09113034
186	0x3ec0d1f6	0.37660187
187	0xbb84e50f	-0.004055626
188	0x3eef5ab3	0.46748886
189	0x3e124735	0.14284976
190	0xbd6e1b93	-0.058131766
191	0x3ee5e61f	0.4490213
192	0xbd1e3ab6	-0.03863021
193	0xba9b0a5a	-0.0011828647
194	0xbd9caa99	-0.076497264
195	0x3e5e8af3	0.21732692
196	0x3f2a3d02	0.6649934
197	0x3de69df6	0.112605974
198	0x3e984e81	0.29747394
199	0x3e40aa57	0.1881498
200	0xbbc20c95	-0.00592191
201	0x3deadc74	0.11467829
202	0x3ea0ef27	0.3143246
203	0xbcd9c898	-0.026584908
204	0x3e4454b7	0.19172941
205	0x3ed7ab5c	0.42122924
206	0xbd5cbb5f	-0.05388963
207	0xbde9bc56	-0.11412875
208	0x3e93610f	0.28784987
209	0xbd769de3	-0.060209166
210	0x3eb0fc3c	0.3456744
211	0xbcf7267c	-0.030169718
212	0xbd7da5dc	-0.061925754
213	0x3ee678c5	0.45014015
214	0xbd23795f	-0.03991067
215	0x3f25f256	0.648229
216	0x3f599d5d	0.8500574
217	0xbce5ecba	-0.028066982
218	0x3d04a21f	0.032381173
219	0x3e1b8e68	0.15191042
220	0x3c9e9d93	0.019362247
221	0xbd817b6b	-0.06322368
222	0xbbf46535	-0.007458354
223	0x3e9bdbb6	0.30441064
224	0x3c9d206b	0.019180497
225	0x3e9d5460	0.30728436
226	0x3e1b9b3c	0.15195936
227	0x3e1aa267	0.15101014
228	0x3e9349b1	0.2876716
229	0xbc2d5d49	-0.010581323
230	0x3df4c05e	0.11950754
231	0xbcf4d9d0	-0.029889017
232	0xbd9c28af	-0.07624947
233	0x3e4c6eb8	0.19964111
234	0x3e19be52	0.15014008
235	0x3d1662c0	0.03671527
236	0xbe2af0c2	-0.16693404
237	0xbd54e4f6	-0.051976167
238	0x3e713a0e	0.23557302
239	0x3e1149af	0.14188264
240	0x3ee3a828	0.4446423
241	0x3eb1189d	0.3458909
242	0x3f2b5c24	0.6693747
243	0xbd9ee394	-0.07758251
244	0xbd1e3ca7	-0.03863206
245	0x3da0c0d7	0.07849281
246	0xbb25b8e6	-0.002528721
247	0xbd3a4a81	-0.04548121
248	0x3e0351e6	0.1282421
249	0x3bdd57e1	0.0067548607
250	0x3dd3e862	0.10347058
251	0x3dfb033f	0.122564785
252	0xbd43b1e8	-0.047777086
253	0xbd114d08	-0.035473853
254	0x3f1b3033	0.6062042
255	0x3c113d44	0.0088647045

net.4.weight f4 [10, 256]
0	0xbc874977	-0.016514523
1	0x3be611ca	0.0070211636
2	0x3e068bf9	0.13139333
3	0x3ec7aa6d	0.38997212
4	0x3e450e5d	0.1924376
5	0xbc01cb69	-0.007922032
6	0x3e055ab2	0.13022879
7	0xbe17859d	-0.14797063
8	0xbc4969a8	-0.012293257
9	0x3eb97f84	0.362301
10	0x3e07627d	0.13221164
11	0x3d32843e	0.043583147
12	0xbd211ba9	-0.03933302
13	0x3c48de0d	0.012259972
14	0x3c2d80f6	0.010589829
15	0xbe976a4d	-0.2957329
16	0x3e224c63	0.15849452
17	0xbe004d7a	-0.12529555
18	0x3e65ef9f	0.2245469
19	0x3ee7a2ad	0.452413
20	0x3e2b845a	0.16749707
21	0x3ecfd32d	0.40590802
22	0xbd1a5f4f	-0.03768855
23	0x39ae86e0	0.00033288356
24	0x3cbf5611	0.02335647
25	0xbb534018	-0.0032234248
26	0xbea64909	-0.32477596
27	0x3cfeaa9a	0.031087209
28	0xbf86102d	-1.0473686
29	0x3d5a1445	0.053241987
30	0x3dedd53f	0.11612939
31	0x3f37f818	0.71862936
32	0xbdbe1922	-0.092821375
33	0x3b72865b	0.0037006352
34	0x3ca62f71	0.020286294
35	0xbe121148	-0.14264405
36	0xbeaf6b40	-0.34261513
37	0x3e52a2ec	0.20569962
38	0x3db3ec31	0.08785284
39	0x3e554f68	0.20831072
40	0xbe31e846	-0.17373762
41	0x3b3096dc	0.0026945388
42	0x3d1ab6ac	0.037771866
43	0xbcd3787c	-0.025814287
44	0x3ba10f3c	0.004915146
45	0xbcb09e90	-0.021559983
46	0x3f5db845	0.866093
47	0xbeafb3c6	-0.34316844
48	0x3ebf6397	0.3738067
49	0x3f51f0fe	0.8200835
50	0x3cb5fab7	0.022214277
51	0x3dc96faa	0.09835751
52	0x3e545d02	0.20738605
53	0x3e682cb0	0.22673297
54	0x3e43f845	0.19137676
55	0xbece66b5	-0.40312734
56	0x3e610ebb	0.21978275
57	0x3e5fe357	0.21864067
58	0xbe628b1f	-0.22123383
59	0x3f024e79	0.5090099
60	0xbeb5bb83	-0.35494623
61	0x3c4adf2c	0.01238231
62	0x3d73e539	0.059544776
63	0x3e619395	0.22028954
64	0x3d217c35	0.039425094
65	0x3f9df4ec	1.2340369
66	0x3e54d5c9	0.20784678
67	0xbe91470e	-0.28374523
68	0x3e896a43	0.26838884
69	0xbe7a7384	-0.24458128
70	0xbf474cbe	-0.77851474
71	0x3ef0e380	0.4704857
72	0x3e4cf323	0.20014624
73	0xbeff6804	-0.49884045
74	0x3ce85ee2	0.028365556
75	0xbd56a2a2	-0.052401192
76	0x3ec78b0e	0.38973278
77	0xbca32c88	-0.019918695
78	0xbe882bee	-0.26596016
79	0xbd1013dd	-0.035175193
80	0x3e8f6f6a	0.2801469
81	0x3ebc9204	0.3683015
82	0x3d01288e	0.031532817
83	0xbe273694	-0.16329414
84	0x3e9c79d5	0.305617
85	0xbc305a4d	-0.010763717
86	0x3d8dad06	0.06917767
87	0x3c73f6cd	0.014890385
88	0x3f19ed67	0.6012787
89	0x3e14049d	0.14454885
90	0x3d99e3cd	0.07514153
91	0xbb163342	-0.0022918736
92	0x3c5c1c53	0.013434487
93	0xbe63007e	-0.22168157
94	0x3f2a406c	0.6650455
95	0x3e064689	0.13112845
96	0x3cbe6fc2	0.02324665
97	0x3d8259ac	0.0636476
98	0x3dbaa64b	0.09113749
99	0xbed71f9a	-0.42016298
100	0x3e041ee4	0.12902409
101	0xbe217994	-0.15769035
102	0xbd6972ad	-0.05699413
103	0x3e4c1450	0.19929624
104	0x3f0463d8	0.5171485
105	0x3f424f42	0.7590219
106	0x3e5b66d3	0.21425943
107	0xbea857d6	-0.32879514
108	0x3f3ae0f5	0.7299951
109	0x3d6d0fa8	0.05787626
110	0xbb780f6d	-0.0037850991
111	0x3ea07567	0.3133957
112	0xbf4bbf8c	-0.7958915
113	0xbc2af1f3	-0.010433662
114	0x3bed14aa	0.0072351294
115	0x3f512c8e	0.8170861
116	0xbecbed79	-0.39829615
117	0x3ec14e40	0.37755013
118	0x3e38b6e7	0.18038522
119	0x3e26e6ad	0.16298933
120	0x3f1cd0c7	0.6125607
121	0x3ddcd758	0.10783261
122	0x3e8b1255	0.27162424
123	0xbbcd68ca	-0.0062685953
124	0xbb876ce6	-0.0041328548
125	0x3d81a4aa	0.06330235
126	0x3c7ef367	0.015560961
127	0x3f237a36	0.63858354
128	0x3e92bd3b	0.28659996
129	0x3e01a97f	0.12662314
130	0xbec6fe33	-0.38865814
131	0x3da39712	0.07987799
132	0xbf205db4	-0.6264298
133	0xbf18fe58	-0.597631
134	0xbbd375e6	-0.0064532636
135	0x3daf84a1	0.08570219
136	0xbf0aebd2	-0.54266083
137	0xbf0fb19d	-0.5613039
138	0xbcf511de	-0.029915746
139	0x3d181c15	0.037136156
140	0x3e58a320	0.21155977
141	0x3d147711	0.036246363
142	0x3d0ac5a5	0.033879895
143	0xbf27eb65	-0.6559356
144	0x3c572461	0.013131232
145	0xbf1ec12e	-0.6201352
146	0x3e3804c2	0.17970565
147	0xbd13b416	-0.036060415
148	0xbcf99149	-0.030464785
149	0xbc63e698	-0.013909958
150	0xbede2603	-0.43388376
151	0xbe7288f4	-0.23685056
152	0x3d1bd789	0.038047347
153	0x3e512de4	0.20427662
154	0x3ccb11c0	0.024788737
155	0xbcbc27fc	-0.022968285
156	0x3e0a2b41	0.13493063
157	0xbe247804	-0.16061407
158	0x3e002f10	0.12517953
159	0x3e0114f7	0.12605654
160	0xbd2b888a	-0.04187826
161	0x3dc2e5d0	0.095164895
162	0xbc64d02a	-0.013965646
163	0x3e478c5e	0.1948714
164	0x3f07cdf7	0.5304865
165	0x3e9b418c	0.30323446
166	0x3dc91621	0.09818674
167	0xbc1c779b	-0.009550001
168	0x3e51b299	0.20478286
169	0x3e24638b	0.16053598
170	0xbcf5866c	-0.029971324
171	0x3e015bbd	0.12632652
172	0x3d004679	0.031317208
173	0x3d174f08	0.036940604
174	0x3b51043b	0.003189339
175	0xbe0e3e6d	-0.13891001
176	0x3d950345	0.07276014
177	0x3e841b64	0.25802147
178	0xbf01ce47	-0.5070538
179	0x3c3f5dcc	0.011680078
180	0x3e31a6b2	0.17348745
181	0xbe9ff628	-0.3124249
182	0x3c969359	0.018380808
183	0xbd42270b	-0.047400516
184	0x3e97764f	0.2958245
185	0x3ec955b6	0.39323205
186	0xbe85e741	-0.26152995
187	0x3bdeb3e9	0.0067963493
188	0x3e6e9b7e	0.23301503
189	0x3e346238	0.17615592
190	0xbe09de23	-0.13463645
191	0xbbab90b9	-0.005235758
192	0xbd1dc3e3	-0.03851689
193	0xbcaf27a1	-0.021381201
194	0x3cb327e0	0.0218696
195	0xbe95ee7b	-0.2928351
196	0x3e6a00dd	0.22851892
197	0x3d86fbf0	0.06591022
198	0xbf1a2a29	-0.6022058
199	0x3e81392b	0.25238928
200	0x3cd68302	0.026185516
201	0x3e8b1ba4	0.27169526
202	0x3f2e1d04	0.68013024
203	0x3b2a571d	0.0025991865
204	0xbf5f547a	-0.87238276
205	0x3e578e24	0.21050316
206	0x3cb8d8ea	0.02256437
207	0xbe075574	-0.13216192
208	0x3eb6ac58	0.35678363
209	0x39117092	0.00013870213
210	0x3de62ac0	0.11238623
211	0x3da6b5b9	0.081401296
212	0xbd2ae005	-0.041717548
213	0xbcaf4381	-0.021394493
214	0x3c1cf060	0.009578794
215	0x3db8b600	0.09019089
216	0xbf4f9740	-0.81090164
217	0xbd09ea97	-0.033670988
218	0x3d616dc9	0.05503634
219	0xbed385b8	-0.41312957
220	0xbc57fe68	-0.013183214
221	0xbd1c2516	-0.038121305
222	0xbed0f3a3	-0.4081088
223	0x3eb55b18	0.35421062
224	0x3d785b07	0.060633685
225	0xbe970112	-0.29493004
226	0x3daa5d34	0.08318558
227	0x3e87ac26	0.26498526
228	0xbea66899	-0.32501677
229	0x3b7e27ec	0.003878112
230	0x3e2cc80e	0.1687319
231	0x3e5a5954	0.21323138
232	0xbce07443	-0.027399188
233	0x3c4e4ec6	0.012592023
234	0xbe1afa68	-0.15134585
235	0xbeb0fea5	-0.34569278
236	0x3d2dc43b	0.042423468
237	0x3da3d256	0.07999103
238	0xbe6203c1	-0.22071745
239	0x3ee88f84	0.45421994
240	0x3e9693ea	0.29409724
241	0xbeb9da2f	-0.36299273
242	0x3e04c9aa	0.12967554
243	0x3d389e24	0.04507269
244	0x3b41b0c8	0.0029554833
245	0x3e33ae41	0.17546941
246	0xbd808090	-0.06274521
247	0x3d2e56f8	0.04256341
248	0x3e18acf4	0.14909726
249	0x3e5ae9ff	0.21378325
250	0xbea06439	-0.31326464
251	0xbf429c6c	-0.7601993
252	0x3c8ca26e	0.017167296
253	0xbc636a60	-0.013880342
254	0xbddc1d7b	-0.107478105
255	0x3ce2d157	0.027687712

net.4.bias f4 [10]
0	0x3f2409df	0.6407756
1	0x3f31e2ac	0.694865
2	0x3ec8ff54	0.392573
3	0x3f36cd90	0.71407413
4	0x3ea7071c	0.32622612
5	0x3e83980c	0.2570194
6	0x3f1fd17d	0.6242903
7	0x3f43f055	0.7653859
8	0x3eaa6b45	0.33284965
9	0x3f2b7676	0.6697763
